Unit 3/best_net.pt (torch, 2347 bytes, 1 tensors)

weight f4 [1, 330]
000000 00 b0 2c c5 d7 b7 e4 44 80 ab 36 45 c1 51 0b 46
       -2763.0 1829.745 2922.7188 8916.438
000010 7a f2 86 45 06 ff 83 45 02 a1 95 45 4f a2 b6 45
       4318.3096 4223.878 4788.126 5844.2886
000020 e1 be aa 45 eb ae 93 44 67 55 c3 44 0d b9 ac 45
       5463.86 1181.4662 1562.6688 5527.1313
000030 94 eb c4 45 7d 5a b6 45 af 79 83 c4 73 69 d3 45
       6301.4473 5835.311 -1051.8026 6765.181
000040 c7 b6 83 45 05 c2 07 44 43 1b b2 45 78 11 42 45
       4214.847 543.03156 5699.4077 3105.0918
000050 56 d7 2e c4 dc 81 85 c5 94 3a c4 45 c9 08 b3 45
       -699.3646 -4272.2324 6279.3223 5729.098
000060 33 7e 3c 45 8f 01 b8 45 5d 52 96 45 49 ef 82 45
       3015.8875 5888.195 4810.2954 4189.9106
000070 26 bd b5 44 ff 91 b3 44 76 8e cf 44 7b 6d 19 45
       1453.9109 1436.5624 1660.4519 2454.8425
000080 68 e9 5e 44 bf 18 b9 43 a4 9e dd 43 5e cd 91 c3
       891.647 370.19333 443.23938 -291.60443
000090 72 77 c2 c4 89 94 65 45 bd 02 00 45 95 37 90 45
       -1555.7327 3673.2834 2048.1711 4614.9478
0000a0 1e c1 11 45 a0 41 bf 29 8a 2c e1 c4 d0 68 8f 45
       2332.0698 8.493488e-14 -1801.3918 4589.1016
0000b0 4a 88 f3 a8 64 fc 60 44 87 5c 4c 45 b8 2c 8d 45
       -2.7037525e-14 899.9436 3269.783 4517.59
0000c0 94 27 9d 45 b0 65 89 45 1d 8c ae c4 46 30 78 45
       5028.9473 4396.711 -1396.3785 3971.017
0000d0 30 8e 2c aa ed 79 76 c3 55 dd bd 45 57 d5 2c 45
       -1.5326e-13 -246.47627 6075.6665 2765.3337
0000e0 95 4b 8a 45 65 dd 16 a9 ee 28 8e 45 1a 91 00 c4
       4425.4478 -3.349872e-14 4549.116 -514.2672
0000f0 3c 78 0a 2a 14 7f 6b 45 4b a3 ba 45 ef e7 89 44
       1.2298577e-13 3767.9424 5972.4116 1103.2479
000100 b0 a2 c7 c2 7b 87 83 45 68 14 49 a8 8a 27 87 45
       -99.81775 4208.935 -1.1162166e-14 4324.9424
000110 18 ca a4 45 13 1c 15 44 f2 de 1f a9 b7 98 31 c4
       5273.2617 596.43866 -3.5498466e-14 -710.38617
000120 4c 17 be c2 9b 58 4b c4 3c 82 b4 45 d6 bf 25 45
       -95.0455 -813.38446 5776.2793 2651.9897
000130 99 35 38 44 0e 62 ea 45 5c a7 74 c4 46 32 d6 c4
       736.83746 7500.257 -978.615 -1713.571
000140 a6 b4 8b 44 26 c6 12 c4 66 df ec c3 e6 b5 c3 44
       1117.6453 -587.09607 -473.7453 1565.6843
000150 c5 37 b2 43 28 1f a2 c4 f6 1d eb 45 47 a9 fa 45
       356.4357 -1296.9736 7523.745 8021.1597
000160 78 b3 c2 44 5b b0 d4 44 a2 9a f6 c2 69 51 69 44
       1557.6084 1701.5111 -123.30202 933.27203
000170 a8 0e 71 45 7d 60 de 45 d3 f3 0f 45 b4 56 34 45
       3856.916 7116.061 2303.239 2885.419
000180 3e 81 ac aa 48 b7 4e c3 e1 ad 4c c4 05 0e a1 45
       -3.0643017e-13 -206.71594 -818.71686 5153.7524
000190 a7 e0 68 44 c8 35 87 c3 19 a5 dd c4 ba 78 3d 44
       931.5102 -270.42017 -1773.1593 757.88635
0001a0 58 83 f1 c1 04 f4 02 44 fd 0e 07 2a ee 31 3c 43
       -30.189133 523.81274 1.1995609e-13 188.19504
0001b0 3b 8b 84 c3 2d 27 91 45 e1 b5 4a 44 1d 19 f3 c4
       -265.08774 4644.897 810.84186 -1944.7848
0001c0 40 45 69 c3 31 6b 9e c2 78 ce bf 42 be 2a 55 aa
       -233.27051 -79.20936 95.90326 -1.893303e-13
0001d0 c4 e5 91 45 52 0e 13 45 90 ff 84 44 bd 1d a4 41
       4668.7207 2352.895 1063.9863 20.51452
0001e0 d9 00 34 45 de 24 cd a8 dd ee 83 45 e3 2d 05 45
       2880.053 -2.277556e-14 4221.858 2130.868
0001f0 4a 0a 87 45 82 57 09 c3 dd 22 d7 44 b5 94 80 45
       4321.286 -137.34183 1721.0895 4114.5884
000200 54 e5 fd 44 6d 09 eb 44 3d f7 73 a8 df 7a 77 44
       2031.1665 1880.2946 -1.3542821e-14 989.91986
000210 34 76 5d 45 f8 a8 00 45 d7 d8 bf 45 d7 53 31 44
       3543.3877 2058.5605 6139.105 709.31
000220 07 b0 5d 44 00 48 40 a4 4e f7 7d c5 f1 f8 8d 45
       886.7504 -4.169435e-17 -4063.4565 4543.1177
000230 74 47 15 29 f0 df 75 29 b8 59 99 be d5 84 93 44
       3.3146622e-14 5.4595163e-14 -0.29951262 1180.151
000240 31 e2 a1 44 39 5e 53 45 ee 9f 16 b5 84 d9 e2 44
       1295.0685 3381.889 -5.611208e-07 1814.7974
000250 fd 34 74 43 41 52 88 42 08 d4 cd 45 82 4d ee 42
       244.20699 68.16065 6586.504 119.15138
000260 2a e9 a5 45 39 26 fa 44 95 49 97 43 c7 31 85 45
       5309.1455 2001.1945 302.57486 4262.222
000270 5c 8f b6 44 2b 8f 85 44 5b e8 66 44 13 b5 7e 45
       1460.48 1068.474 923.63055 4075.3171
000280 4f 90 67 45 ca 6b 92 43 c2 0d ac 28 d4 c0 09 45
       3705.0193 292.8421 1.9101803e-14 2204.0518
000290 f1 bb 40 44 bc 40 35 43 1e db 8e 45 4e 4e ee 42
       770.9366 181.25287 4571.3896 119.15294
0002a0 ee 79 a4 45 31 12 17 45 7f 8b 74 45 36 a3 85 45
       5263.241 2417.137 3912.7185 4276.4014
0002b0 0b db cf 43 a7 ad 54 44 ae 1e b8 44 2c c6 cb 43
       415.71127 850.7133 1472.9587 407.54822
0002c0 a4 f0 7a 45 41 18 73 45 b1 1e 1e 45 af a2 48 29
       4015.04 3889.5159 2529.9182 4.4550027e-14
0002d0 3e 86 db c4 d0 6c 3e 45 b2 69 ae 45 5c 64 95 45
       -1756.1951 3046.8008 5581.212 4780.545
0002e0 b6 a7 f5 45 46 cb 12 45 69 ab 91 45 51 11 1c 45
       7860.964 2348.7046 4661.4263 2497.0823
0002f0 87 4a 87 a9 9e 05 86 44 8d b8 3f 45 cf da 34 45
       -6.008133e-14 1072.1755 3067.5344 2893.6755
000300 c0 eb 1b 2a 2f d8 8c 45 55 70 dd a8 2d 4b 7a 45
       1.3848558e-13 4507.023 -2.4584645e-14 4004.6985
000310 76 22 14 45 ec 87 a4 45 7d 95 54 45 85 5b 9e 44
       2370.1538 5264.99 3401.343 1266.86
000320 32 a5 8a c3 2b b6 d5 a8 72 2a 08 46 00 62 e1 44
       -277.2906 -2.3726753e-14 8714.611 1803.0625
000330 f5 6f 33 45 98 b4 27 45 d4 af 86 45 da e0 bd 44
       2870.9973 2683.287 4309.9785 1519.0266
000340 46 9e 86 45 b3 1e 2d 44 e9 6f 86 45 e5 af 86 45
       4307.784 692.4797 4301.989 4309.987
000350 0b a3 91 45 92 60 eb 45 2c e1 79 45 d2 61 1e 45
       4660.3804 7532.0713 3998.0732 2534.1138
000360 de 71 7a 45 e3 95 c5 44 70 6d 20 45 71 91 bf 45
       4007.1167 1580.684 2566.8398 6130.18
000370 cf a7 e1 44 8c 60 36 45 7d 37 2f 45 d3 af 86 45
       1805.244 2918.0342 2803.468 4309.978
000380 4f ef 71 45 fb f8 37 c4 6d b2 f4 44 2a 17 e1 44
       3870.9568 -735.8903 1957.5758 1800.7239
000390 9c 95 8d 44 0c fb 8a 45 f4 37 81 45 7a 51 6e 43
       1132.6753 4447.381 4134.994 238.31827
0003a0 27 a8 8a 45 a1 f1 1b 45 3c 19 a8 44 a0 53 f2 c3
       4437.019 2495.1018 1344.7886 -484.65332
0003b0 b9 44 a1 44 ce c0 5a 29 79 a0 a1 45 db 07 56 45
       1290.1476 4.8572955e-14 5172.059 3424.491
0003c0 0d 3a 1e 45 4a 40 4f 41 57 36 23 45 c4 cd 0a b6
       2531.6282 12.953196 2611.3962 -2.0683374e-06
0003d0 d7 e2 a2 45 f2 2d 89 45 70 35 52 a8 5f 7f 9c 45
       5212.355 4389.743 -1.1668929e-14 5007.9214
0003e0 bf 45 76 45 8e 22 1d 29 5b 66 24 43 70 39 86 45
       3940.3591 3.4890974e-14 164.39983 4295.1797
0003f0 e5 0e 03 43 01 fb 0c 46 87 19 75 45 04 ac 59 45
       131.05818 9022.751 3921.5955 3482.751
